…
t(\"We use\", torch.cuda.device_count(), \"GPUs\")\n    net_glob = nn.DataParallel(net_glob)  # Utilize multiple GPUs if available\n\nnet_glob.to(device)\nprint(net_glob)\n","metadata":{"execution":{"iopub.status.busy":"2024-05-03T22:43:58.721136Z","iopub.execute_input":"2024-05-03T22:43:58.721442Z","iopub.status.idle":"2024-05-03T22:43:58.967630Z","shell.execute_reply.started":"2024-05-03T22:43:58.721416Z","shell.execute_reply":"2024-05-03T22:43:58.966323Z"},"trusted":true},"execution_count":11,"outputs":[{"name":"stdout","text":"We use 2 GPUs\nDataParallel(\n  (module): ResNet18(\n    (conv1): Conv2d(3, 64, kernel_size=(7, 7), stride=(2, 2), padding=(3, 3), bias=False)\n    (bn1): BatchNorm2d(64, eps=1e-05, momentum=0.1, affine=True, track_running_stats=True)\n    (relu): ReLU(inplace=True)\n    (maxpool): MaxPool2d(kernel_size=3, stride=2, padding=1, dilation=1, ceil_mode=False)\n    (layer1): Sequential(\n      (0): BasicBlock(\n        (conv1): Conv2d(64, 64, kernel_size=(3, 3), stride=(1, 1), padding=(1, 1), bias=False)\n        (bn1): BatchNorm2d(64, eps=1e-05, momentum=0.1, affine=True, track_running_stats=True)\n        (relu): ReLU(inplace=True)\n        (conv2): Conv2d(64, 64, kernel_size=(3, 3), stride=(1, 1), padding=(1, 1), bias=False)\n        (bn2): BatchNorm2d(64, eps=1e-05, momentum=0.1, affine=True, track_running_stats=True)\n      )\n      (1): BasicBlock(\n        (conv1): Conv2d(64, 64, kernel_size=(3, 3), stride=(1, 1), padding=(1, 1), bias=False)\n        (bn1): BatchNorm2d(64, eps=1e-05, momentum=0.1, affine=True, track_running_stats=True)\n        (relu): ReLU(inplace=True)\n        (conv2): Conv2d(64, 64, kernel_size=(3, 3), stride=(1, 1), padding=(1, 1), bias=False)\n        (bn2): BatchNorm2d(64, eps=1e-05, momentum=0.1, affine=True, track_running_stats=True)\n      )\n    )\n    (layer2): Sequential(\n      (0): BasicBlock(\n        (conv1): Conv2d(64, 128, kernel_size=(3, 3), stride=(2, 2), padding=(1, 1), bias=False)\n        (bn1): BatchNorm2d(128, eps=1e-05, momentum=0.1, affine=True, track_running_stats=True)\n        (relu): ReLU(inplace=True)\n        (conv2): Conv2d(128, 128, kernel_size=(3, 3), stride=(1, 1), padding=(1, 1), bias=False)\n        (bn2): BatchNorm2d(128, eps=1e-05, momentum=0.1, affine=True, track_running_stats=True)\n        (downsample): Sequential(\n          (0): Conv2d(64, 128, kernel_size=(1, 1), stride=(2, 2), bias=False)\n          (1): BatchNorm2d(128, eps=1e-05, momentum=0.1, affine=True, track_running_stats=True)\n        )\n      )\n      (1): BasicBlock(\n        (conv1): Conv2d(128, 128, kernel_size=(3, 3), stride=(1, 1), padding=(1, 1), bias=False)\n        (bn1): BatchNorm2d(128, eps=1e-05, momentum=0.1, affine=True, track_running_stats=True)\n        (relu): ReLU(inplace=True)\n        (conv2): Conv2d(128, 128, kernel_size=(3, 3), stride=(1, 1), padding=(1, 1), bias=False)\n        (bn2): BatchNorm2d(128, eps=1e-05, momentum=0.1, affine=True, track_running_stats=True)\n      )\n    )\n    (layer3): Sequential(\n      (0): BasicBlock(\n        (conv1): Conv2d(128, 256, kernel_size=(3, 3), stride=(2, 2), padding=(1, 1), bias=False)\n        (bn1): BatchNorm2d(256, eps=1e-05, momentum=0.1, affine=True, track_running_stats=True)\n        (relu): ReLU(inplace=True)\n        (conv2): Conv2d(256, 256, kernel_size=(3, 3), stride=(1, 1), padding=(1, 1), bias=False)\n        (bn2): BatchNorm2d(256, eps=1e-05, momentum=0.1, affine=True, track_running_stats=True)\n        (downsample): Sequential(\n          (0): Conv2d(128, 256, kernel_size=(1, 1), stride=(2, 2), bias=False)\n          (1): BatchNorm2d(256, eps=1e-05, momentum=0.1, affine=True, track_running_stats=True)\n        )\n      )\n      (1): BasicBlock(\n        (conv1): Conv2d(256, 256, kernel_size=(3, 3), stride=(1, 1), padding=(1, 1), bias=False)\n        (bn1): BatchNorm2d(256, eps=1e-05, momentum=0.1, affine=True, track_running_stats=True)\n        (relu): ReLU(inplace=True)\n        (conv2): Conv2d(256, 256, kernel_size=(3, 3), stride=(1, 1), padding=(1, 1), bias=False)\n        (bn2): BatchNorm2d(256, eps=1e-05, momentum=0.1, affine=True, track_running_stats=True)\n      )\n    )\n    (layer4): Sequential(\n      (0): BasicBlock(\n        (conv1): Conv2d(256, 512, kernel_size=(3, 3), stride=(2, 2), padding=(1, 1), bias=False)\n        (bn1): BatchNorm2d(512, eps=1e-05, momentum=0.1, affine=True, track_running_stats=True)\n        (relu): ReLU(inplace=True)\n        (conv2): Conv2d(512, 512, kernel_size=(3, 3), stride=(1, 1), padding=(1, 1), bias=False)\n        (bn2): BatchNorm2d(512, eps=1e-05, momentum=0.1, affine=True, track_running_stats=True)\n        (downsample): Sequential(\n          (0): Conv2d(256, 512, kernel_size=(1, 1), stride=(2, 2), bias=False)\n          (1): BatchNorm2d(512, eps=1e-05, momentum=0.1, affine=True, track_running_stats=True)\n        )\n      )\n      (1): BasicBlock(\n        (conv1): Conv2d(512, 512, kernel_size=(3, 3), stride=(1, 1), padding=(1, 1), bias=False)\n        (bn1): BatchNorm2d(512, eps=1e-05, momentum=0.1, affine=True, track_running_stats=True)\n        (relu): ReLU(inplace=True)\n        (conv2): Conv2d(512, 512, kernel_size=(3, 3), stride=(1, 1), padding=(1, 1), bias=False)\n        (bn2): BatchNorm2d(512, eps=1e-05, momentum=0.1, affine=True, track_running_stats=True)\n      )\n    )\n    (avgpool): AdaptiveAvgPool2d(output_size=(1, 1))\n    (fc): Linear(in_features=512, out_features=7, bias=True)\n  )\n)\n","output_type":"stream"}]},{"cell_type":"code","source":"#===========================================================================================\n# Federated averaging: FedAvg\ndef FedAvg(w):\n    w_avg = copy.deepcopy(w[0])\n    for k in w_avg.keys():\n        for i in range(1, len(w)):\n            w_avg[k] += w[i][k]\n        w_avg[k] =
…
